…
I0214 09:21:30.114998  2031 net.cpp:296] The NetState phase (0) differed from the phase (1) specified by a rule in layer accuracy
I0214 09:21:30.191664  2031 net.cpp:53] Initializing net from parameters: 
name: "CaffeNet"
state {
  phase: TRAIN
  level: 0
  stage: ""
}
layer {
  name: "data"
  type: "Data"
  top: "data"
  top: "label"
  include {
    phase: TRAIN
  }
  transform_param {
    mirror: true
    crop_size: 227
    mean_file: "/workspace/input/mean.binaryproto"
  }
  data_param {
    source: "/workspace/input/train_lmdb"
    batch_size: 256
    backend: LMDB
  }
}
layer {
  name: "conv1"
  type: "Convolution"
  bottom: "data"
  top: "conv1"
  param {
    lr_mult: 1
    decay_mult: 1
  }
  param {
    lr_mult: 2
    decay_mult: 0
  }
  convolution_param {
    num_output: 96
    kernel_size: 11
    stride: 4
    weight_filler {
      type: "gaussian"
      std: 0.01
    }
    bias_filler {
      type: "constant"
      value: 0
    }
  }
}
layer {
  name: "relu1"
  type: "ReLU"
  bottom: "conv1"
  top: "conv1"
}
layer {
  name: "pool1"
  type: "Pooling"
  bottom: "conv1"
  top: "pool1"
  pooling_param {
    pool: MAX
    kernel_size: 3
    stride: 2
  }
}
layer {
  name: "norm1"
  type: "LRN"
  bottom: "pool1"
  top: "norm1"
  lrn_param {
    local_size: 5
    alpha: 0.0001
    beta: 0.75
  }
}
layer {
  name: "conv2"
  type: "Convolution"
  bottom: "norm1"
  top: "conv2"
  param {
    lr_mult: 1
    decay_mult: 1
  }
  param {
    lr_mult: 2
    decay_mult: 0
  }
  convolution_param {
    num_output: 256
    pad: 2
    kernel_size: 5
    group: 2
    weight_filler {
      type: "gaussian"
      std: 0.01
    }
    bias_filler {
      type: "constant"
      value: 1
    }
  }
}
layer {
  name: "relu2"
  type: "ReLU"
  bottom: "conv2"
  top: "conv2"
}
layer {
  name: "pool2"
  type: "Pooling"
  bottom: "conv2"
  top: "pool2"
  pooling_param {
    pool: MAX
    kernel_size: 3
    stride: 2
  }
}
layer {
  name: "norm2"
  type: "LRN"
  bottom: "pool2"
  top: "norm2"
  lrn_param {
    local_size: 5
    alpha: 0.0001
    beta: 0.75
  }
}
layer {
  name: "conv3"
  type: "Convolution"
  bottom: "norm2"
  top: "conv3"
  param {
    lr_mult: 1
    decay_mult: 1
  }
  param {
    lr_mult: 2
    decay_mult: 0
  }
  convolution_param {
    num_output: 384
    pad: 1
    kernel_size: 3
    weight_filler {
      type: "gaussian"
      std: 0.01
    }
    bias_filler {
      type: "constant"
      value: 0
    }
  }
}
layer {
  name: "relu3"
  type: "ReLU"
  bottom: "conv3"
  top: "conv3"
}
layer {
  name: "conv4"
  type: "Convolution"
  bottom: "conv3"
  top: "conv4"
  param {
    lr_mult: 1
    decay_mult: 1
  }
  param {
    lr_mult: 2
    decay_mult: 0
  }
  convolution_param {
    num_output: 384
    pad: 1
    kernel_size: 3
    group: 2
    weight_filler {
      type: "gaussian"
      std: 0.01
    }
    bias_filler {
      type: "constant"
      value: 1
    }
  }
}
layer {
  name: "relu4"
  type: "ReLU"
  bottom: "conv4"
  top: "conv4"
}
layer {
  name: "conv5"
  type: "Convolution"
  bottom: "conv4"
  top: "conv5"
  param {
    lr_mult: 1
    decay_mult: 1
  }
  param {
    lr_mult: 2
    decay_mult: 0
  }
  convolution_param {
    num_output: 256
    pad: 1
    kernel_size: 3
    group: 2
    weight_filler {
      type: "gaussian"
      std: 0.01
    }
    bias_filler {
      type: "constant"
      value: 1
    }
  }
}
layer {
  name: "relu5"
  type: "ReLU"
  bottom: "conv5"
  top: "conv5"
}
layer {
  name: "pool5"
  type: "Pooling"
  bottom: "conv5"
  top: "pool5"
  pooling_param {
    pool: MAX
    kernel_size: 3
    stride: 2
  }
}
layer {
  name: "fc6"
  type: "InnerProduct"
  bottom: "pool5"
  top: "fc6"
  param {
    lr_mult: 1
    decay_mult: 1
  }
  param {
    lr_mult: 2
    decay_mult: 0
  }
  inner_product_param {
    num_output: 4096
    weight_filler {
      type: "gaussian"
      std: 0.005
    }
    bias_filler {
      type: "constant"
      value: 1
    }
  }
}
layer {
  name: "relu6"
  type: "ReLU"
  bottom: "fc6"
  top: "fc6"
}
layer {
  name: "drop6"
  type: "Dropout"
  bottom: "fc6"
  top: "fc6"
  dropout_param {
    dropout_ratio: 0.5
  }
}
layer {
  name: "fc7"
  type: "InnerProduct"
  bottom: "fc6"
  top: "fc7"
  param {
    lr_mult: 1
    decay_mult: 1
  }
  param {
    lr_mult: 2
    decay_mult: 0
  }
  inner_product_param {
    num_output: 4096
    weight_filler {
      type: "gaussian"
      std: 0.005
    }
    bias_filler {
      type: "constant"
      value: 1
    }
  }
}
layer {
  name: "relu7"
  type: "ReLU"
  bottom: "fc7"
  top: "fc7"
}
layer {
  name: "drop7"
  type: "Dropout"
  bottom: "fc7"
  top: "fc7"
  dropout_param {
    dropout_ratio: 0.5
  }
}
layer {
  name: "fc8"
  type: "InnerProduct"
  bottom: "fc7"
  top: "fc8"
  param {
    lr_mult: 1
    decay_mult: 1
  }
  param {
    lr_mult: 2
    decay_mult: 0
  }
  inner_product_param {
    num_output: 2
    weight_filler {
      type: "gaussian"
      std: 0.01
    }
    bias_filler {
      type: "constant"
      value: 0
    }
  }
}
layer {
  name: "loss"
  type: "SoftmaxWithLoss"
  bottom: "fc8"
  bottom: "label"
  top: "loss"
}
I0214 09:21:30.240610  2031 layer_factory.hpp:77] Creating layer data
I0214 09:21:30.354151  2031 db_lmdb.cpp:35] Opened lmdb /workspace/input/train_lmdb
I0214 09:21:30.439046  2031 net.cpp:86] Creating Layer data
I0214 09:21:30.439158  2031 net.cpp:382] data -> data
I0214 09:21:30.439302  2031 net.cpp:382] data -> label
I0214 09:21:30.469156  2031 data_transformer.cpp:25] Loading mean file from: /workspace/input/mean.binaryproto
I0214 09:21:30.529176  2031 data_layer.cpp:45] output data size: 256,3,227,227
I0214 09:21:33.506187  2031 net.cpp:124] Setting up data
I0214 09:21:33.724752  2031 net.cpp:131] Top shape: 256 3 227 227 (39574272)
I0214 09:21:33.724802  2031 net.cpp:131] Top shape: 256 (256)
I0214 09:21:33.724810  2031 net.cpp:139] Memory required for data: 158298112
I0214 09:21:33.851562  2031 layer_factory.hpp:77] Creating layer conv1
I0214 09:21:33.890239  2031 net.cpp:86] Creating Layer conv1
I0214 09:21:33.890295  2031 net.cpp:408] conv1 <- data
I0214 09:21:33.936192  2031 net.cpp:382] conv1 -> conv1
I0214 09:21:41.558030  2031 net.cpp:124] Setting up conv1
I0214 09:21:41.559883  2031 net.cpp:131] Top shape: 256 96 55 55 (74342400)
I0214 09:21:41.559895  2031 net.cpp:139] Memory required for data: 455667712
I0214 09:21:41.586511  2031 layer_factory.hpp:77] Creating layer relu1
I0214 09:21:41.586570  2031 net.cpp:86] Creating Layer relu1
I0214 09:21:41.586585  2031 net.cpp:408] relu1 <- conv1
I0214 09:21:41.586598  2031 net.cpp:369] relu1 -> conv1 (in-place)
I0214 09:21:41.589457  2031 net.cpp:124] Setting up relu1
I0214 09:21:41.589483  2031 net.cpp:131] Top shape: 256 96 55 55 (74342400)
I0214 09:21:41.589490  2031 net.cpp:139] Memory required for data: 753037312
I0214 09:21:41.589496  2031 layer_factory.hpp:77] Creating layer pool1
I0214 09:21:41.589512  2031 net.cpp:86] Creating Layer pool1
I0214 09:21:41.589520  2031 net.cpp:408] pool1 <- conv1
I0214 09:21:41.589532  2031 net.cpp:382] pool1 -> pool1
I0214 09:21:41.590363  2031 net.cpp:124] Setting up pool1
I0214 09:21:41.590392  2031 net.cpp:131] Top shape: 256 96 27 27 (17915904)
I0214 09:21:41.590399  2031 net.cpp:139] Memory required for data: 824700928
I0214 09:21:41.590406  2031 layer_factory.hpp:77] Creating layer norm1
I0214 09:21:41.590432  2031 net.cpp:86] Creating Layer norm1
I0214 09:21:41.590442  2031 net.cpp:408] norm1 <- pool1
I0214 09:21:41.590451  2031 net.cpp:382] norm1 -> norm1
I0214 09:21:41.591800  2031 net.cpp:124] Setting up norm1
I0214 09:21:41.591825  2031 net.cpp:131] Top shape: 256 96 27 27 (17915904)
I0214 09:21:41.591831  2031 net.cpp:139] Memory required for data: 896364544
I0214 09:21:41.591838  2031 layer_factory.hpp:77] Creating layer conv2
I0214 09:21:41.591864  2031 net.cpp:86] Creating Layer conv2
I0214 09:21:41.591876  2031 net.cpp:408] conv2 <- norm1
I0214 09:21:41.596784  2031 net.cpp:382] conv2 -> conv2
I0214 09:21:41.603147  2031 net.cpp:124] Setting up conv2
I0214 09:21:41.603176  2031 net.cpp:131] Top shape: 256 256 27 27 (47775744)
I0214 09:21:41.603184  2031 net.cpp:139] Memory required for data: 1087467520
I0214 09:21:41.603199  2031 layer_factory.hpp:77] Creating layer relu2
I0214 09:21:41.603212  2031 net.cpp:86] Creating Layer relu2
I0214 09:21:41.603221  2031 net.cpp:408] relu2 <- conv2
I0214 09:21:41.603232  2031 net.cpp:369] relu2 -> conv2 (in-place)
I0214 09:21:41.603512  2031 net.cpp:124] Setting up relu2
I0214 09:21:41.603535  2031 net.cpp:131] Top shape: 256 256 27 27 (47775744)
I0214 09:21:41.603543  2031 net.cpp:139] Memory required for data: 1278570496
I0214 09:21:41.603550  2031 layer_factory.hpp:77] Creating layer pool2
I0214 09:21:41.603562  2031 net.cpp:86] Creating Layer pool2
I0214 09:21:41.603574  2031 net.cpp:408] pool2 <- conv2
I0214 09:21:41.603584  2031 net.cpp:382] pool2 -> pool2
I0214 09:21:41.603638  2031 net.cpp:124] Setting up pool2
I0214 09:21:41.603657  2031 net.cpp:131] Top shape: 256 256 13 13 (11075584)
I0214 09:21:41.603663  2031 net.cpp:139] Memory required for data: 1322872832
I0214 09:21:41.603668  2031 layer_factory.hpp:77] Creating layer norm2
I0214 09:21:41.603696  2031 net.cpp:86] Creating Layer norm2
I0214 09:21:41.603706  2031 net.cpp:408] norm2 <- pool2
I0214 09:21:41.603714  2031 net.cpp:382] norm2 -> norm2
I0214 09:21:41.604037  2031 net.cpp:124] Setting up norm2
I0214 09:21:41.604059  2031 net.cpp:131] Top shape: 256 256 13 13 (11075584)
I0214 09:21:41.604065  2031 net.cpp:139] Memory required for data: 1367175168
I0214 09:21:41.604071  2031 layer_factory.hpp:77] Creating layer conv3
I0214 09:21:41.604089  2031 net.cpp:86] Creating Layer conv3
I0214 09:21:41.604099  2031 net.cpp:408] conv3 <- norm2
I0214 09:21:41.604111  2031 net.cpp:382] conv3 -> conv3
I0214 09:21:41.615195  2031 net.cpp:124] Setting up conv3
I0214 09:21:41.615227  2031 net.cpp:131] Top shape: 256 384 13 13 (16613376)
I0214 09:21:41.615234  2031 net.cpp:139] Memory required for data: 1433628672
I0214 09:21:41.615252  2031 layer_factory.hpp:77] Creating layer relu3
I0214 09:21:41.615263  2031 net.cpp:86] Creating Layer relu3
I0214 09:21:41.615270  2031 net.cpp:408] relu3 <- conv3
I0214 09:21:41.615278  2031 net.cpp:369] relu3 -> conv3 (in-place)
I0214 09:21:41.615561  2031 net.cpp:124] Setting up relu3
I0214 09:21:41.615583  2031 net.cpp:131] Top shape: 256 384 13 13 (16613376)
I0214 09:21:41.615603  2031 net.cpp:139] Memory required for data: 1500082176
I0214 09:21:41.615609  2031 layer_factory.hpp:77] Creating layer conv4
I0214 09:21:41.615623  2031 net.cpp:86] Creating Layer conv4
I0214 09:21:41.615630  2031 net.cpp:408] conv4 <- conv3
I0214 09:21:41.615641  2031 net.cpp:382] conv4 -> conv4
I0214 09:21:41.625036  2031 net.cpp:124] Setting up conv4
I0214 09:21:41.625066  2031 net.cpp:131] Top shape: 256 384 13 13 (16613376)
I0214 09:21:41.625073  2031 net.cpp:139] Memory required for data: 1566535680
I0214 09:21:41.625083  2031 layer_factory.hpp:77] Creating layer relu4
I0214 09:21:41.625093  2031 net.cpp:86] Creating Layer relu4
I0214 09:21:41.625102  2031 net.cpp:408] relu4 <- conv4
I0214 09:21:41.625113  2031 net.cpp:369] relu4 -> conv4 (in-place)
I0214 09:21:41.625383  2031 net.cpp:124] Setting up relu4
I0214 09:21:41.625408  2031 net.cpp:131] Top shape: 256 384 13 13 (16613376)
I0214 09:21:41.625414  2031 net.cpp:139] Memory required for data: 1632989184
I0214 09:21:41.625421  2031 layer_factory.hpp:77] Creating layer conv5
I0214 09:21:41.625440  2031 net.cpp:86] Creating Layer conv5
I0214 09:21:41.625448  2031 net.cpp:408] conv5 <- conv4
I0214 09:21:41.625458  2031 net.cpp:382] conv5 -> conv5
I0214 09:21:41.632524  2031 net.cpp:124] Setting up conv5
I0214 09:21:41.632552  2031 net.cpp:131] Top shape: 256 256 13 13 (11075584)
I0214 09:21:41.632560  2031 net.cpp:139] Memory required for data: 1677291520
I0214 09:21:41.632572  2031 layer_factory.hpp:77] Creating layer relu5
I0214 09:21:41.632588  2031 net.cpp:86] Creating Layer relu5
I0214 09:21:41.632601  2031 net.cpp:408] relu5 <- conv5
I0214 09:21:41.632638  2031 net.cpp:369] relu5 -> conv5 (in-place)
I0214 09:21:41.632832  2031 net.cpp:124] Setting up relu5
I0214 09:21:41.632854  2031 net.cpp:131] Top shape: 256 256 13 13 (11075584)
I0214 09:21:41.632860  2031 net.cpp:139] Memory required for data: 1721593856
I0214 09:21:41.632866  2031 layer_factory.hpp:77] Creating layer pool5
I0214 09:21:41.632879  2031 net.cpp:86] Creating Layer pool5
I0214 09:21:41.632889  2031 net.cpp:408] pool5 <- conv5
I0214 09:21:41.632901  2031 net.cpp:382] pool5 -> pool5
I0214 09:21:41.632962  2031 net.cpp:124] Setting up pool5
I0214 09:21:41.632982  2031 net.cpp:131] Top shape: 256 256 6 6 (2359296)
I0214 09:21:41.632988  2031 net.cpp:139] Memory required for data: 1731031040
I0214 09:21:41.632994  2031 layer_factory.hpp:77] Creating layer fc6
I0214 09:21:41.633020  2031 net.cpp:86] Creating Layer fc6
I0214 09:21:41.633034  2031 net.cpp:408] fc6 <- pool5
I0214 09:21:41.633044  2031 net.cpp:382] fc6 -> fc6
I0214 09:21:42.650176  2031 net.cpp:124] Setting up fc6
I0214 09:21:42.655894  2031 net.cpp:131] Top shape: 256 4096 (1048576)
I0214 09:21:42.655925  2031 net.cpp:139] Memory required for data: 1735225344
I0214 09:21:42.655958  2031 layer_factory.hpp:77] Creating layer relu6
I0214 09:21:42.655987  2031 net.cpp:86] Creating Layer relu6
I0214 09:21:42.655998  2031 net.cpp:408] relu6 <- fc6
I0214 09:21:42.656013  2031 net.cpp:369] relu6 -> fc6 (in-place)
I0214 09:21:42.684610  2031 net.cpp:124] Setting up relu6
I0214 09:21:42.684666  2031 net.cpp:131] Top shape: 256 4096 (1048576)
I0214 09:21:42.684684  2031 net.cpp:139] Memory required for data: 1739419648
I0214 09:21:42.684695  2031 layer_factory.hpp:77] Creating layer drop6
I0214 09:21:42.684715  2031 net.cpp:86] Creating Layer drop6
I0214 09:21:42.684725  2031 net.cpp:408] drop6 <- fc6
I0214 09:21:42.684741  2031 net.cpp:369] drop6 -> fc6 (in-place)
I0214 09:21:42.734777  2031 net.cpp:124] Setting up drop6
I0214 09:21:42.734817  2031 net.cpp:131] Top shape: 256 4096 (1048576)
I0214 09:21:42.734824  2031 net.cpp:139] Memory required for data: 1743613952
I0214 09:21:42.734833  2031 layer_factory.hpp:77] Creating layer fc7
I0214 09:21:42.734858  2031 net.cpp:86] Creating Layer fc7
I0214 09:21:42.734868  2031 net.cpp:408] fc7 <- fc6
I0214 09:21:42.734880  2031 net.cpp:382] fc7 -> fc7
I0214 09:21:43.075845  2031 net.cpp:124] Setting up fc7
I0214 09:21:43.075908  2031 net.cpp:131] Top shape: 256 4096 (1048576)
I0214 09:21:43.075917  2031 net.cpp:139] Memory required for data: 1747808256
I0214 09:21:43.080317  2031 layer_factory.hpp:77] Creating layer relu7
I0214 09:21:43.080354  2031 net.cpp:86] Creating Layer relu7
I0214 09:21:43.080365  2031 net.cpp:408] relu7 <- fc7
I0214 09:21:43.080377  2031 net.cpp:369] relu7 -> fc7 (in-place)
I0214 09:21:43.133075  2031 net.cpp:124] Setting up relu7
I0214 09:21:43.133132  2031 net.cpp:131] Top shape: 256 4096 (1048576)
I0214 09:21:43.133141  2031 net.cpp:139] Memory required for data: 1752002560
I0214 09:21:43.133150  2031 layer_factory.hpp:77] Creating layer drop7
I0214 09:21:43.133169  2031 net.cpp:86] Creating Layer drop7
I0214 09:21:43.133178  2031 net.cpp:408] drop7 <- fc7
I0214 09:21:43.133384  2031 net.cpp:369] drop7 -> fc7 (in-place)
I0214 09:21:43.133457  2031 net.cpp:124] Setting up drop7
I0214 09:21:43.133468  2031 net.cpp:131] Top shape: 256 4096 (1048576)
I0214 09:21:43.133474  2031 net.cpp:139] Memory required for data: 1756196864
I0214 09:21:43.133481  2031 layer_factory.hpp:77] Creating layer fc8
I0214 09:21:43.133708  2031 net.cpp:86] Creating Layer fc8
I0214 09:21:43.133719  2031 net.cpp:408] fc8 <- fc7
I0214 09:21:43.133728  2031 net.cpp:382] fc8 -> fc8
I0214 09:21:43.209642  2031 net.cpp:124] Setting up fc8
I0214 09:21:43.209709  2031 net.cpp:131] Top shape: 256 2 (512)
I0214 09:21:43.209719  2031 net.cpp:139] Memory required for data: 1756198912
I0214 09:21:43.209734  2031 layer_factory.hpp:77] Creating layer loss
I0214 09:21:43.210817  2031 net.cpp:86] Creating Layer loss
I0214 09:21:43.210845  2031 net.cpp:408] loss <- fc8
I0214 09:21:43.218773  2031 net.cpp:408] loss <- label
I0214 09:21:43.231912  2031 net.cpp:382] loss -> loss
I0214 09:21:43.540298  2031 layer_factory.hpp:77] Creating layer loss
…
I0214 09:21:44.113226  2031 net.cpp:296] The NetState phase (1) differed from the phase (0) specified by a rule in layer data
I0214 09:21:44.134747  2031 net.cpp:53] Initializing net from parameters: 
name: "CaffeNet"
state {
  phase: TEST
}
layer {
  name: "data"
  type: "Data"
  top: "data"
  top: "label"
  include {
    phase: TEST
  }
  transform_param {
    mirror: false
    crop_size: 227
    mean_file: "/workspace/input/mean.binaryproto"
  }
  data_param {
    source: "/workspace/input/validation_lmdb"
    batch_size: 50
    backend: LMDB
  }
}
layer {
  name: "conv1"
  type: "Convolution"
  bottom: "data"
  top: "conv1"
  param {
    lr_mult: 1
    decay_mult: 1
  }
  param {
    lr_mult: 2
    decay_mult: 0
  }
  convolution_param {
    num_output: 96
    kernel_size: 11
    stride: 4
    weight_filler {
      type: "gaussian"
      std: 0.01
    }
    bias_filler {
      type: "constant"
      value: 0
    }
  }
}
layer {
  name: "relu1"
  type: "ReLU"
  bottom: "conv1"
  top: "conv1"
}
layer {
  name: "pool1"
  type: "Pooling"
  bottom: "conv1"
  top: "pool1"
  pooling_param {
    pool: MAX
    kernel_size: 3
    stride: 2
  }
}
layer {
  name: "norm1"
  type: "LRN"
  bottom: "pool1"
  top: "norm1"
  lrn_param {
    local_size: 5
    alpha: 0.0001
    beta: 0.75
  }
}
layer {
  name: "conv2"
  type: "Convolution"
  bottom: "norm1"
  top: "conv2"
  param {
    lr_mult: 1
    decay_mult: 1
  }
  param {
    lr_mult: 2
    decay_mult: 0
  }
  convolution_param {
    num_output: 256
    pad: 2
    kernel_size: 5
    group: 2
    weight_filler {
      type: "gaussian"
      std: 0.01
    }
    bias_filler {
      type: "constant"
      value: 1
    }
  }
}
layer {
  name: "relu2"
  type: "ReLU"
  bottom: "conv2"
  top: "conv2"
}
layer {
  name: "pool2"
  type: "Pooling"
  bottom: "conv2"
  top: "pool2"
  pooling_param {
    pool: MAX
    kernel_size: 3
    stride: 2
  }
}
layer {
  name: "norm2"
  type: "LRN"
  bottom: "pool2"
  top: "norm2"
  lrn_param {
    local_size: 5
    alpha: 0.0001
    beta: 0.75
  }
}
layer {
  name: "conv3"
  type: "Convolution"
  bottom: "norm2"
  top: "conv3"
  param {
    lr_mult: 1
    decay_mult: 1
  }
  param {
    lr_mult: 2
    decay_mult: 0
  }
  convolution_param {
    num_output: 384
    pad: 1
    kernel_size: 3
    weight_filler {
      type: "gaussian"
      std: 0.01
    }
    bias_filler {
      type: "constant"
      value: 0
    }
  }
}
layer {
  name: "relu3"
  type: "ReLU"
  bottom: "conv3"
  top: "conv3"
}
layer {
  name: "conv4"
  type: "Convolution"
  bottom: "conv3"
  top: "conv4"
  param {
    lr_mult: 1
    decay_mult: 1
  }
  param {
    lr_mult: 2
    decay_mult: 0
  }
  convolution_param {
    num_output: 384
    pad: 1
    kernel_size: 3
    group: 2
    weight_filler {
      type: "gaussian"
      std: 0.01
    }
    bias_filler {
      type: "constant"
      value: 1
    }
  }
}
layer {
  name: "relu4"
  type: "ReLU"
  bottom: "conv4"
  top: "conv4"
}
layer {
  name: "conv5"
  type: "Convolution"
  bottom: "conv4"
  top: "conv5"
  param {
    lr_mult: 1
    decay_mult: 1
  }
  param {
    lr_mult: 2
    decay_mult: 0
  }
  convolution_param {
    num_output: 256
    pad: 1
    kernel_size: 3
    group: 2
    weight_filler {
      type: "gaussian"
      std: 0.01
    }
    bias_filler {
      type: "constant"
      value: 1
    }
  }
}
layer {
  name: "relu5"
  type: "ReLU"
  bottom: "conv5"
  top: "conv5"
}
layer {
  name: "pool5"
  type: "Pooling"
  bottom: "conv5"
  top: "pool5"
  pooling_param {
    pool: MAX
    kernel_size: 3
    stride: 2
  }
}
layer {
  name: "fc6"
  type: "InnerProduct"
  bottom: "pool5"
  top: "fc6"
  param {
    lr_mult: 1
    decay_mult: 1
  }
  param {
    lr_mult: 2
    decay_mult: 0
  }
  inner_product_param {
    num_output: 4096
    weight_filler {
      type: "gaussian"
      std: 0.005
    }
    bias_filler {
      type: "constant"
      value: 1
    }
  }
}
layer {
  name: "relu6"
  type: "ReLU"
  bottom: "fc6"
  top: "fc6"
}
layer {
  name: "drop6"
  type: "Dropout"
  bottom: "fc6"
  top: "fc6"
  dropout_param {
    dropout_ratio: 0.5
  }
}
layer {
  name: "fc7"
  type: "InnerProduct"
  bottom: "fc6"
  top: "fc7"
  param {
    lr_mult: 1
    decay_mult: 1
  }
  param {
    lr_mult: 2
    decay_mult: 0
  }
  inner_product_param {
    num_output: 4096
    weight_filler {
      type: "gaussian"
      std: 0.005
    }
    bias_filler {
      type: "constant"
      value: 1
    }
  }
}
layer {
  name: "relu7"
  type: "ReLU"
  bottom: "fc7"
  top: "fc7"
}
layer {
  name: "drop7"
  type: "Dropout"
  bottom: "fc7"
  top: "fc7"
  dropout_param {
    dropout_ratio: 0.5
  }
}
layer {
  name: "fc8"
  type: "InnerProduct"
  bottom: "fc7"
  top: "fc8"
  param {
    lr_mult: 1
    decay_mult: 1
  }
  param {
    lr_mult: 2
    decay_mult: 0
  }
  inner_product_param {
    num_output: 2
    weight_filler {
      type: "gaussian"
      std: 0.01
    }
    bias_filler {
      type: "constant"
      value: 0
    }
  }
}
layer {
  name: "accuracy"
  type: "Accuracy"
  bottom: "fc8"
  bottom: "label"
  top: "accuracy"
  include {
    phase: TEST
  }
}
layer {
  name: "loss"
  type: "SoftmaxWithLoss"
  bottom: "fc8"
  bottom: "label"
  top: "loss"
}
I0214 09:21:44.150300  2031 layer_factory.hpp:77] Creating layer data
I0214 09:21:44.191541  2031 db_lmdb.cpp:35] Opened lmdb /workspace/input/validation_lmdb
I0214 09:21:44.215262  2031 net.cpp:86] Creating Layer data
I0214 09:21:44.215381  2031 net.cpp:382] data -> data
I0214 09:21:44.216969  2031 net.cpp:382] data -> label
I0214 09:21:44.217049  2031 data_transformer.cpp:25] Loading mean file from: /workspace/input/mean.binaryproto
I0214 09:21:44.298336  2031 data_layer.cpp:45] output data size: 50,3,227,227
I0214 09:21:45.236289  2031 net.cpp:124] Setting up data
I0214 09:21:45.244288  2031 net.cpp:131] Top shape: 50 3 227 227 (7729350)
I0214 09:21:45.244319  2031 net.cpp:131] Top shape: 50 (50)
I0214 09:21:45.244333  2031 net.cpp:139] Memory required for data: 30917600
I0214 09:21:45.454403  2031 layer_factory.hpp:77] Creating layer label_data_1_split
I0214 09:21:45.739910  2031 net.cpp:86] Creating Layer label_data_1_split
I0214 09:21:45.740017  2031 net.cpp:408] label_data_1_split <- label
I0214 09:21:45.740074  2031 net.cpp:382] label_data_1_split -> label_data_1_split_0
I0214 09:21:45.740124  2031 net.cpp:382] label_data_1_split -> label_data_1_split_1
I0214 09:21:45.740403  2031 net.cpp:124] Setting up label_data_1_split
I0214 09:21:45.740443  2031 net.cpp:131] Top shape: 50 (50)
I0214 09:21:45.740460  2031 net.cpp:131] Top shape: 50 (50)
I0214 09:21:45.740473  2031 net.cpp:139] Memory required for data: 30918000
I0214 09:21:45.740490  2031 layer_factory.hpp:77] Creating layer conv1
I0214 09:21:45.740547  2031 net.cpp:86] Creating Layer conv1
I0214 09:21:45.740564  2031 net.cpp:408] conv1 <- data
I0214 09:21:45.740592  2031 net.cpp:382] conv1 -> conv1
I0214 09:21:45.975035  2031 net.cpp:124] Setting up conv1
I0214 09:21:45.975121  2031 net.cpp:131] Top shape: 50 96 55 55 (14520000)
I0214 09:21:45.975138  2031 net.cpp:139] Memory required for data: 88998000
I0214 09:21:45.975198  2031 layer_factory.hpp:77] Creating layer relu1
I0214 09:21:45.975235  2031 net.cpp:86] Creating Layer relu1
I0214 09:21:45.975255  2031 net.cpp:408] relu1 <- conv1
I0214 09:21:45.975276  2031 net.cpp:369] relu1 -> conv1 (in-place)
I0214 09:21:45.975994  2031 net.cpp:124] Setting up relu1
I0214 09:21:45.976033  2031 net.cpp:131] Top shape: 50 96 55 55 (14520000)
I0214 09:21:45.976047  2031 net.cpp:139] Memory required for data: 147078000
I0214 09:21:45.976063  2031 layer_factory.hpp:77] Creating layer pool1
I0214 09:21:45.976109  2031 net.cpp:86] Creating Layer pool1
I0214 09:21:45.976126  2031 net.cpp:408] pool1 <- conv1
I0214 09:21:45.976147  2031 net.cpp:382] pool1 -> pool1
I0214 09:21:45.998297  2031 net.cpp:124] Setting up pool1
I0214 09:21:45.998378  2031 net.cpp:131] Top shape: 50 96 27 27 (3499200)
I0214 09:21:45.998406  2031 net.cpp:139] Memory required for data: 161074800
I0214 09:21:45.998437  2031 layer_factory.hpp:77] Creating layer norm1
I0214 09:21:45.998495  2031 net.cpp:86] Creating Layer norm1
I0214 09:21:45.998514  2031 net.cpp:408] norm1 <- pool1
I0214 09:21:45.998553  2031 net.cpp:382] norm1 -> norm1
I0214 09:21:46.000349  2031 net.cpp:124] Setting up norm1
I0214 09:21:46.000401  2031 net.cpp:131] Top shape: 50 96 27 27 (3499200)
I0214 09:21:46.000427  2031 net.cpp:139] Memory required for data: 175071600
I0214 09:21:46.000458  2031 layer_factory.hpp:77] Creating layer conv2
I0214 09:21:46.000516  2031 net.cpp:86] Creating Layer conv2
I0214 09:21:46.000536  2031 net.cpp:408] conv2 <- norm1
I0214 09:21:46.000562  2031 net.cpp:382] conv2 -> conv2
I0214 09:21:46.031761  2031 net.cpp:124] Setting up conv2
I0214 09:21:46.031834  2031 net.cpp:131] Top shape: 50 256 27 27 (9331200)
I0214 09:21:46.031852  2031 net.cpp:139] Memory required for data: 212396400
I0214 09:21:46.031893  2031 layer_factory.hpp:77] Creating layer relu2
I0214 09:21:46.031924  2031 net.cpp:86] Creating Layer relu2
I0214 09:21:46.031940  2031 net.cpp:408] relu2 <- conv2
I0214 09:21:46.031962  2031 net.cpp:369] relu2 -> conv2 (in-place)
I0214 09:21:46.032632  2031 net.cpp:124] Setting up relu2
I0214 09:21:46.032670  2031 net.cpp:131] Top shape: 50 256 27 27 (9331200)
I0214 09:21:46.032712  2031 net.cpp:139] Memory required for data: 249721200
I0214 09:21:46.032729  2031 layer_factory.hpp:77] Creating layer pool2
I0214 09:21:46.032759  2031 net.cpp:86] Creating Layer pool2
I0214 09:21:46.032775  2031 net.cpp:408] pool2 <- conv2
I0214 09:21:46.032798  2031 net.cpp:382] pool2 -> pool2
I0214 09:21:46.032935  2031 net.cpp:124] Setting up pool2
I0214 09:21:46.032977  2031 net.cpp:131] Top shape: 50 256 13 13 (2163200)
I0214 09:21:46.051901  2031 net.cpp:139] Memory required for data: 258374000
I0214 09:21:46.051966  2031 layer_factory.hpp:77] Creating layer norm2
I0214 09:21:46.052003  2031 net.cpp:86] Creating Layer norm2
I0214 09:21:46.052026  2031 net.cpp:408] norm2 <- pool2
I0214 09:21:46.052055  2031 net.cpp:382] norm2 -> norm2
I0214 09:21:46.052728  2031 net.cpp:124] Setting up norm2
I0214 09:21:46.052776  2031 net.cpp:131] Top shape: 50 256 13 13 (2163200)
I0214 09:21:46.052791  2031 net.cpp:139] Memory required for data: 267026800
I0214 09:21:46.052808  2031 layer_factory.hpp:77] Creating layer conv3
I0214 09:21:46.052841  2031 net.cpp:86] Creating Layer conv3
I0214 09:21:46.052857  2031 net.cpp:408] conv3 <- norm2
I0214 09:21:46.052881  2031 net.cpp:382] conv3 -> conv3
I0214 09:21:46.083339  2031 net.cpp:124] Setting up conv3
I0214 09:21:46.083428  2031 net.cpp:131] Top shape: 50 384 13 13 (3244800)
I0214 09:21:46.083446  2031 net.cpp:139] Memory required for data: 280006000
I0214 09:21:46.083485  2031 layer_factory.hpp:77] Creating layer relu3
I0214 09:21:46.083515  2031 net.cpp:86] Creating Layer relu3
I0214 09:21:46.083539  2031 net.cpp:408] relu3 <- conv3
I0214 09:21:46.083561  2031 net.cpp:369] relu3 -> conv3 (in-place)
I0214 09:21:46.084378  2031 net.cpp:124] Setting up relu3
I0214 09:21:46.084455  2031 net.cpp:131] Top shape: 50 384 13 13 (3244800)
I0214 09:21:46.084487  2031 net.cpp:139] Memory required for data: 292985200
I0214 09:21:46.084516  2031 layer_factory.hpp:77] Creating layer conv4
I0214 09:21:46.084561  2031 net.cpp:86] Creating Layer conv4
I0214 09:21:46.084586  2031 net.cpp:408] conv4 <- conv3
I0214 09:21:46.084611  2031 net.cpp:382] conv4 -> conv4
I0214 09:21:46.121089  2031 net.cpp:124] Setting up conv4
I0214 09:21:46.121259  2031 net.cpp:131] Top shape: 50 384 13 13 (3244800)
I0214 09:21:46.121279  2031 net.cpp:139] Memory required for data: 305964400
I0214 09:21:46.121310  2031 layer_factory.hpp:77] Creating layer relu4
I0214 09:21:46.121340  2031 net.cpp:86] Creating Layer relu4
I0214 09:21:46.121357  2031 net.cpp:408] relu4 <- conv4
I0214 09:21:46.121397  2031 net.cpp:369] relu4 -> conv4 (in-place)
I0214 09:21:46.122298  2031 net.cpp:124] Setting up relu4
I0214 09:21:46.122357  2031 net.cpp:131] Top shape: 50 384 13 13 (3244800)
I0214 09:21:46.122375  2031 net.cpp:139] Memory required for data: 318943600
I0214 09:21:46.122390  2031 layer_factory.hpp:77] Creating layer conv5
I0214 09:21:46.122426  2031 net.cpp:86] Creating Layer conv5
I0214 09:21:46.122452  2031 net.cpp:408] conv5 <- conv4
I0214 09:21:46.122483  2031 net.cpp:382] conv5 -> conv5
I0214 09:21:46.143435  2031 net.cpp:124] Setting up conv5
I0214 09:21:46.143517  2031 net.cpp:131] Top shape: 50 256 13 13 (2163200)
I0214 09:21:46.143565  2031 net.cpp:139] Memory required for data: 327596400
I0214 09:21:46.143743  2031 layer_factory.hpp:77] Creating layer relu5
I0214 09:21:46.143839  2031 net.cpp:86] Creating Layer relu5
I0214 09:21:46.143859  2031 net.cpp:408] relu5 <- conv5
I0214 09:21:46.143910  2031 net.cpp:369] relu5 -> conv5 (in-place)
I0214 09:21:46.144982  2031 net.cpp:124] Setting up relu5
I0214 09:21:46.145036  2031 net.cpp:131] Top shape: 50 256 13 13 (2163200)
I0214 09:21:46.145051  2031 net.cpp:139] Memory required for data: 336249200
I0214 09:21:46.145068  2031 layer_factory.hpp:77] Creating layer pool5
I0214 09:21:46.145117  2031 net.cpp:86] Creating Layer pool5
I0214 09:21:46.145148  2031 net.cpp:408] pool5 <- conv5
I0214 09:21:46.145172  2031 net.cpp:382] pool5 -> pool5
I0214 09:21:46.145331  2031 net.cpp:124] Setting up pool5
I0214 09:21:46.145380  2031 net.cpp:131] Top shape: 50 256 6 6 (460800)
I0214 09:21:46.145396  2031 net.cpp:139] Memory required for data: 338092400
I0214 09:21:46.145411  2031 layer_factory.hpp:77] Creating layer fc6
I0214 09:21:46.155546  2031 net.cpp:86] Creating Layer fc6
I0214 09:21:46.155627  2031 net.cpp:408] fc6 <- pool5
I0214 09:21:46.155660  2031 net.cpp:382] fc6 -> fc6
I0214 09:21:47.723031  2031 net.cpp:124] Setting up fc6
I0214 09:21:47.732070  2031 net.cpp:131] Top shape: 50 4096 (204800)
I0214 09:21:47.737120  2031 net.cpp:139] Memory required for data: 338911600
I0214 09:21:47.820125  2031 layer_factory.hpp:77] Creating layer relu6
I0214 09:21:47.874012  2031 net.cpp:86] Creating Layer relu6
I0214 09:21:47.874104  2031 net.cpp:408] relu6 <- fc6
I0214 09:21:47.874168  2031 net.cpp:369] relu6 -> fc6 (in-place)
I0214 09:21:48.170450  2031 net.cpp:124] Setting up relu6
I0214 09:21:48.170545  2031 net.cpp:131] Top shape: 50 4096 (204800)
I0214 09:21:48.170563  2031 net.cpp:139] Memory required for data: 339730800
I0214 09:21:48.170583  2031 layer_factory.hpp:77] Creating layer drop6
I0214 09:21:48.180078  2031 net.cpp:86] Creating Layer drop6
I0214 09:21:48.180133  2031 net.cpp:408] drop6 <- fc6
I0214 09:21:48.180168  2031 net.cpp:369] drop6 -> fc6 (in-place)
I0214 09:21:48.180502  2031 net.cpp:124] Setting up drop6
I0214 09:21:48.180554  2031 net.cpp:131] Top shape: 50 4096 (204800)
I0214 09:21:48.180570  2031 net.cpp:139] Memory required for data: 340550000
I0214 09:21:48.180585  2031 layer_factory.hpp:77] Creating layer fc7
I0214 09:21:48.180634  2031 net.cpp:86] Creating Layer fc7
I0214 09:21:48.180656  2031 net.cpp:408] fc7 <- fc6
I0214 09:21:48.181258  2031 net.cpp:382] fc7 -> fc7
I0214 09:21:49.495367  2031 net.cpp:124] Setting up fc7
I0214 09:21:49.526350  2031 net.cpp:131] Top shape: 50 4096 (204800)
I0214 09:21:49.526371  2031 net.cpp:139] Memory required for data: 341369200
I0214 09:21:49.526419  2031 layer_factory.hpp:77] Creating layer relu7
I0214 09:21:49.526471  2031 net.cpp:86] Creating Layer relu7
I0214 09:21:49.526489  2031 net.cpp:408] relu7 <- fc7
I0214 09:21:49.558056  2031 net.cpp:369] relu7 -> fc7 (in-place)
I0214 09:21:49.790916  2031 net.cpp:124] Setting up relu7
I0214 09:21:49.791012  2031 net.cpp:131] Top shape: 50 4096 (204800)
I0214 09:21:49.791023  2031 net.cpp:139] Memory required for data: 342188400
I0214 09:21:49.791038  2031 layer_factory.hpp:77] Creating layer drop7
I0214 09:21:49.791142  2031 net.cpp:86] Creating Layer drop7
I0214 09:21:49.791188  2031 net.cpp:408] drop7 <- fc7
I0214 09:21:49.791219  2031 net.cpp:369] drop7 -> fc7 (in-place)
I0214 09:21:49.791347  2031 net.cpp:124] Setting up drop7
I0214 09:21:49.791384  2031 net.cpp:131] Top shape: 50 4096 (204800)
I0214 09:21:49.791395  2031 net.cpp:139] Memory required for data: 343007600
I0214 09:21:49.791409  2031 layer_factory.hpp:77] Creating layer fc8
I0214 09:21:49.791442  2031 net.cpp:86] Creating Layer fc8
I0214 09:21:49.791457  2031 net.cpp:408] fc8 <- fc7
I0214 09:21:49.791472  2031 net.cpp:382] fc8 -> fc8
I0214 09:21:49.842002  2031 net.cpp:124] Setting up fc8
I0214 09:21:49.842064  2031 net.cpp:131] Top shape: 50 2 (100)
I0214 09:21:49.842077  2031 net.cpp:139] Memory required for data: 343008000
I0214 09:21:49.842097  2031 layer_factory.hpp:77] Creating layer fc8_fc8_0_split
I0214 09:21:49.842119  2031 net.cpp:86] Creating Layer fc8_fc8_0_split
I0214 09:21:49.842131  2031 net.cpp:408] fc8_fc8_0_split <- fc8
I0214 09:21:49.842145  2031 net.cpp:382] fc8_fc8_0_split -> fc8_fc8_0_split_0
I0214 09:21:49.842167  2031 net.cpp:382] fc8_fc8_0_split -> fc8_fc8_0_split_1
I0214 09:21:49.842264  2031 net.cpp:124] Setting up fc8_fc8_0_split
I0214 09:21:49.842291  2031 net.cpp:131] Top shape: 50 2 (100)
I0214 09:21:49.842303  2031 net.cpp:131] Top shape: 50 2 (100)
I0214 09:21:49.842311  2031 net.cpp:139] Memory required for data: 343008800
I0214 09:21:49.842320  2031 layer_factory.hpp:77] Creating layer accuracy
I0214 09:21:49.847455  2031 net.cpp:86] Creating Layer accuracy
I0214 09:21:49.847497  2031 net.cpp:408] accuracy <- fc8_fc8_0_split_0
I0214 09:21:49.847514  2031 net.cpp:408] accuracy <- label_data_1_split_0
I0214 09:21:49.847532  2031 net.cpp:382] accuracy -> accuracy
…
